…
    "with open('labels.txt', 'w') as f:\n",
    "  f.write(labels)"
   ]
  },
  {
   "cell_type": "code",
   "execution_count": 75,
   "metadata": {
    "colab": {},
    "colab_type": "code",
    "id": "gpwsLq20VWVS"
   },
   "outputs": [
    {
     "name": "stdout",
     "output_type": "stream",
     "text": [
      "Model: \"sequential_6\"\n",
      "_________________________________________________________________\n",
      "Layer (type)                 Output Shape              Param #   \n",
      "=================================================================\n",
      "conv2d_9 (Conv2D)            (None, 222, 222, 512)     14336     \n",
      "_________________________________________________________________\n",
      "max_pooling2d_4 (MaxPooling2 (None, 111, 111, 512)     0         \n",
      "_________________________________________________________________\n",
      "conv2d_10 (Conv2D)           (None, 109, 109, 256)     1179904   \n",
      "_________________________________________________________________\n",
      "max_pooling2d_5 (MaxPooling2 (None, 54, 54, 256)       0         \n",
      "_________________________________________________________________\n",
      "conv2d_11 (Conv2D)           (None, 52, 52, 128)       295040    \n",
      "_________________________________________________________________\n",
      "max_pooling2d_6 (MaxPooling2 (None, 26, 26, 128)       0         \n",
      "_________________________________________________________________\n",
      "conv2d_12 (Conv2D)           (None, 24, 24, 64)        73792     \n",
      "_________________________________________________________________\n",
      "max_pooling2d_7 (MaxPooling2 (None, 12, 12, 64)        0         \n",
      "_________________________________________________________________\n",
      "dropout_1 (Dropout)          (None, 12, 12, 64)        0         \n",
      "_________________________________________________________________\n",
      "flatten_1 (Flatten)          (None, 9216)              0         \n",
      "_________________________________________________________________\n",
      "dense_7 (Dense)              (None, 512)               4719104   \n",
      "_________________________________________________________________\n",
      "dense_8 (Dense)              (None, 10)                5130      \n",
      "=================================================================\n",
      "Total params: 6,287,306\n",
      "Trainable params: 6,287,306\n",
      "Non-trainable params: 0\n",
      "_________________________________________________________________\n"
     ]
    }
   ],
   "source": [
    "model1 = tf.keras.models.Sequential([\n",
    "    tf.keras.layers.Conv2D(512, (3, 3), activation='relu', input_shape=(224, 224, 3)),\n",
…
    "  tf.keras.layers.Dropout(0.2),\n",
    "  tf.keras.layers.GlobalAveragePooling2D(),\n",
    "  tf.keras.layers.Dense(10, activation='softmax')\n",
    "])"
   ]
  },
  {
   "cell_type": "code",
   "execution_count": 95,
   "metadata": {},
   "outputs": [
    {
     "name": "stdout",
     "output_type": "stream",
     "text": [
      "Model: \"sequential_10\"\n",
      "_________________________________________________________________\n",
      "Layer (type)                 Output Shape              Param #   \n",
      "=================================================================\n",
      "mobilenet_1.00_224 (Model)   (None, 7, 7, 1024)        3228864   \n",
      "_________________________________________________________________\n",
      "conv2d_16 (Conv2D)           (None, 5, 5, 1024)        9438208   \n",
      "_________________________________________________________________\n",
      "dropout_2 (Dropout)          (None, 5, 5, 1024)        0         \n",
      "_________________________________________________________________\n",
      "global_average_pooling2d_8 ( (None, 1024)              0         \n",
      "_________________________________________________________________\n",
      "dense_12 (Dense)             (None, 10)                10250     \n",
      "=================================================================\n",
      "Total params: 12,677,322\n",
      "Trainable params: 11,305,482\n",
      "Non-trainable params: 1,371,840\n",
      "_________________________________________________________________\n",
      "Number of trainable variables = 19\n"
     ]
    }
   ],
   "source": [
    "model.summary()\n",
    "print('Number of trainable variables = {}'.format(len(model.trainable_variables)))"
…
